AI_Master/checkpoint.pth (torch, 974244 bytes, 8 tensors)

0.weight f4 [256, 784]
0	0x3e2413cb	0.16023175
1	0x3e1eaf3f	0.15496539
2	0x3e16769d	0.14693685
3	0x3dd25b98	0.10271376
4	0x3de42e97	0.11141699
5	0x3de50cdf	0.111840956
6	0xbd3bc88c	-0.045845553
7	0xbdeb5a86	-0.11491875
8	0xbcb52d7a	-0.022116411
9	0xbe44726a	-0.1918427
10	0xbf2df64f	-0.6795396
11	0xbe3b52d1	-0.1829331
12	0x3e6cec08	0.23136914
13	0x3e19fb98	0.15037382
14	0x3eae33b6	0.34023827
15	0x3d1c47c3	0.038154375
16	0x3bd9b062	0.006643341
17	0xbed6c218	-0.41944957
18	0xbf10bd1a	-0.56538546
19	0xbe8554c2	-0.26041228
20	0xbde65c41	-0.11248065
21	0xbe599d81	-0.21251489
22	0xbdcd9c85	-0.10039619
23	0x3d1eae55	0.038740475
24	0x3e4c97f7	0.19979845
25	0x3e199a93	0.15000372
26	0x3dc326e9	0.09528906
27	0x3e36d7d7	0.17855774
28	0x3e177749	0.14791597
29	0x3e1e1905	0.15439232
30	0x3dbec63d	0.09315155
31	0x3d8e9c62	0.069634214
32	0xba5ebab0	-0.00084964465
33	0xbe34d967	-0.17661057
34	0xbed729af	-0.4202399
35	0xbef0ee00	-0.4705658
36	0xbf527e06	-0.82223547
37	0xbf895db4	-1.0731721
38	0xbf6560b5	-0.8960069
39	0xbda47c07	-0.08031469
40	0x3db00bc7	0.08595996
41	0x3e75debd	0.24010749
42	0x3f07d413	0.53057975
43	0x3f3009b8	0.6876483
44	0x3e1696e4	0.14705998
45	0xbf59ddbb	-0.8510396
46	0xbf5f8152	-0.873067
47	0xbf7f6906	-0.9976963
48	0xbe3b8a81	-0.18314554
49	0x3d375952	0.044762917
50	0xbd56bc29	-0.052425537
51	0xbd5efbbe	-0.0544393
52	0x3c85231e	0.016252097
53	0x3db1a45a	0.08673926
54	0x3daa0857	0.08302372
55	0x3e2bb465	0.16768034
56	0x3e0ce030	0.13757396
57	0x3dc3999b	0.09550782
58	0x3cf4a1a8	0.02986224
59	0x3de629d3	0.11238446
60	0x3d48ebc6	0.049052976
61	0xbd4e1076	-0.050308667
62	0xbcf90a04	-0.030400284
63	0x3dfdcc00	0.123924255
64	0xbe5816ea	-0.21102491
65	0xbe7b3f6e	-0.24535915
66	0x3e99f38a	0.30068618
67	0x3a9f171c	0.0012137624
68	0x3e6f2c37	0.2335671
69	0x3fa8c0b2	1.3183806
70	0x3f9e6ca1	1.2376901
71	0x3dc55afc	0.096364945
72	0xbe6976c1	-0.22799207
73	0x3ed1c8f4	0.40973628
74	0x3d8c8a1c	0.0686228
75	0xbed5d7a8	-0.41766095
76	0xbe18dd7a	-0.14928237
77	0x3edddac9	0.43330982
78	0x3f1b40f8	0.6064601
79	0x3f21b6d2	0.63169587
80	0x3e848c63	0.25888357
81	0xbced2e10	-0.028952628
82	0x3d7781b2	0.06042642
83	0x3dd8f25e	0.10593103
84	0x3db67169	0.0890835
85	0x3e054eec	0.13018388
86	0x3e03065c	0.12795395
87	0x3d9cf809	0.076644965
88	0x3e5cdf56	0.21569571
89	0x3e2a0a5d	0.16605516
90	0x3f0583a1	0.52153975
91	0x3e1536ec	0.14571732
92	0x3eae8b62	0.34090716
93	0x3ebb1559	0.36539724
94	0xbe0f70a7	-0.14007817
95	0xbeeecf20	-0.466424
96	0x3dc0f325	0.09421376
97	0xbc3aa555	-0.011391957
98	0xbf1a6810	-0.60315037
99	0x3d91a925	0.0711234
100	0x3d8b3811	0.06797803
101	0x3e2e7cb0	0.17039752
102	0x3de15b3a	0.11003728
103	0x3f2d27b8	0.6763873
104	0x3f374ea9	0.716044
105	0x3f642d6a	0.89131796
106	0x3f13e737	0.5777468
107	0x3f6cf803	0.92565936
108	0x3f385d76	0.7201761
109	0x3e56e776	0.20986733
110	0x3c8a4b9c	0.016881756
111	0x3e0e304c	0.13885611
112	0x3e0f97de	0.14022776
113	0x3e209f01	0.15685655
114	0x3e1ff79c	0.15621799
115	0x3e84a689	0.25908306
116	0x3eb0a38d	0.3449978
117	0x3ea19c86	0.3156473
118	0x3ee23767	0.44182894
119	0x3ecf8d8b	0.40537676
120	0x3e737a01	0.2377701
121	0x3d938830	0.0720371
122	0x3d6f42eb	0.058413427
123	0xbca55543	-0.020182258
124	0x3f2adaee	0.6674031
125	0xbe0987e3	-0.13430743
126	0xbede2afb	-0.43392166
127	0x3f20ecbd	0.62861234
128	0x3eb01b4a	0.3439582
129	0xbb41588b	-0.0029502239
130	0xbdf495e6	-0.11942653
131	0x3cd2d1a2	0.025734726
132	0x3edff6e9	0.43743065
133	0x3f7fc63f	0.99911875
134	0x3ee43a54	0.4457575
135	0x3f2acb6a	0.66716635
136	0x3f5a740b	0.8533332
137	0x3ed65f9a	0.41869813
138	0x3d5503df	0.052005645
139	0x3e01be10	0.1267016
140	0x3dc25db5	0.094905294
141	0x3e33c0d6	0.1755403
142	0x3e0a3c6c	0.13499612
143	0x3e85c237	0.26124737
144	0x3efbca31	0.49177697
145	0x3eca9dd3	0.39573535
146	0x3f123dca	0.5712553
147	0x3eababff	0.3352966
148	0xbe873ce6	-0.2641365
149	0xbdfb3610	-0.12266171
150	0xbdc7ff11	-0.09765447
151	0xbc1d9514	-0.0096180625
152	0x3e0c7724	0.13717324
153	0x3d5b6be7	0.0535697
154	0xbdc1c9e8	-0.09462339
155	0x3f0cd02a	0.55005133
156	0x3ead64fb	0.33866104
157	0x3ecb0775	0.39654127
158	0xbe47f78f	-0.1952803
159	0x3e43eef4	0.19134122
160	0x3e0d571b	0.1380276
161	0x3f2b5ba8	0.6693673
162	0x3f65d98d	0.8978508
163	0x3f4575ae	0.7713269
164	0x3f3b02b0	0.73050976
165	0x3f09836d	0.53716165
166	0x3da4bbae	0.080436096
167	0x3df77cd7	0.12084358
168	0x3e20f7e9	0.1571957
169	0x3e1443f7	0.14479052
170	0x3e8081b1	0.25098947
171	0x3ebfe802	0.37481695
172	0xbd41aa22	-0.047281392
173	0x3e9f298b	0.31086382
174	0x3edc5e78	0.43040824
175	0x3eadc8df	0.33942315
176	0x3de5a99c	0.11213991
177	0xbdcd8bcb	-0.10036429
178	0xbea06281	-0.31325153
179	0x3d720662	0.05908812
180	0xbd90aa34	-0.07063714
181	0x3e373093	0.17889623
182	0x3d9bd3a3	0.07608726
183	0x3f1c420a	0.6103827
184	0x3e682db1	0.2267368
185	0x3c9f9c9d	0.019483859
186	0x3e1ffa1a	0.1562275
187	0xbd87b645	-0.06626562
188	0xbc7a68eb	-0.015283803
189	0x3f283356	0.6570333
190	0x3f8559e0	1.0418053
191	0x3e8c3d25	0.273904
192	0x3f247659	0.64243084
193	0x3f235250	0.63797474
194	0x3e57f8f0	0.21091056
195	0x3d9a0ac5	0.075215854
196	0x3e2db058	0.16961801
197	0x3e3ab421	0.18232776
198	0x3e92468f	0.28569457
199	0x3e904851	0.28180173
200	0xbe49f4a5	-0.1972223
201	0x3e612512	0.21986797
202	0x3f3089aa	0.6896006
203	0x3f00af6a	0.5026766
204	0xbf0bcdc0	-0.54610825
205	0xbf06f390	-0.52715397
206	0xbecd9e7c	-0.40159976
207	0xbe232a0d	-0.1593401
208	0xbe2a4a86	-0.16629991
209	0xbe83c613	-0.25737056
210	0xbee396c3	-0.4445096
211	0xbed3e040	-0.41382027
212	0xbe242c6d	-0.16032572
213	0xbe9f8984	-0.31159604
214	0xbf56abef	-0.838561
215	0xbf19767f	-0.59946436
216	0xbeab3773	-0.33440742
217	0x3ef1b73e	0.47210115
218	0x3f108931	0.5645934
219	0xbda55503	-0.08072855
220	0x3f15c00f	0.58496183
221	0x3f0704f1	0.52741915
222	0x3e6699e6	0.22519645
223	0x3e0320f4	0.1280554
224	0x3dc8fe22	0.09814097
225	0x3e25c477	0.16188227
226	0x3ebd5d64	0.36985314
227	0x3e526de1	0.20549728
228	0x3ed60e01	0.4180756
229	0x3e4013c2	0.18757537
230	0x3f1f6407	0.62262005
231	0x3f5187c0	0.81847763
232	0xbea2214f	-0.31666037
233	0xbdbc334f	-0.09189474
234	0xbe3650c3	-0.17804246
235	0xbe74f834	-0.23922807
236	0x3d3c4b0c	0.045970008
237	0x3dfb045e	0.12256692
238	0x3df8e907	0.121538214
239	0xbd39120b	-0.045183223
240	0x3d988a43	0.07448246
241	0x3e4e3180	0.2013607
242	0xbe092e39	-0.13396539
243	0x3d675a5d	0.05648266
244	0xbd14d199	-0.0363327
245	0x3f1188a4	0.5684912
246	0x3e71fa19	0.23630561
247	0xbe182a65	-0.14859922
248	0x3efabb28	0.48970914
249	0x3e49029b	0.196299
250	0x3d32d5e8	0.04366103
251	0x3e1b3bde	0.15159556
252	0x3e24542d	0.16047736
253	0x3d6be2ec	0.057589456
254	0x3e4503cf	0.19239734
255	0x3e64bf24	0.2233854

0.bias f4 [256]
0	0xbe2c3ae7	-0.16819344
1	0xbe5ea6cf	-0.2174332
2	0xbe387126	-0.18011913
3	0xbcb8b213	-0.02254585
4	0xbe221713	-0.15829115
5	0xbe91007a	-0.28320676
6	0xbdcad92d	-0.09904704
7	0xbe82a023	-0.255128
8	0xbe0062d6	-0.12537703
9	0x3e3de45d	0.18544145
10	0xbcf2fab3	-0.029660558
11	0xbd4eda7f	-0.050501343
12	0xbdb7303b	-0.08944746
13	0xbdf48a91	-0.11940492
14	0xbd9dea26	-0.07710676
15	0xbd9a1a52	-0.075245515
16	0xbd9ce4be	-0.076608166
17	0xbbcfcbe1	-0.006341443
18	0xbd01c599	-0.031682584
19	0xbbe171d2	-0.0068800235
20	0xbdc5bc06	-0.09655003
21	0xbe67f157	-0.22650658
22	0xbde64781	-0.11244107
23	0xbe0b9a22	-0.13633016
24	0xbbbdc5c8	-0.0057913996
25	0xbe5b1011	-0.21392848
26	0x3c53ef1d	0.012935427
27	0xbe2cd015	-0.16876252
28	0xbe50d322	-0.20393041
29	0xbda2bab2	-0.079457656
30	0xbe2b084e	-0.16702387
31	0xbdebc524	-0.11512211
32	0xbd939d06	-0.07207684
33	0xbe5aa003	-0.21350102
34	0x3cb64a2e	0.022252169
35	0xbdca7d28	-0.09887153
36	0xbe422a8b	-0.18961541
37	0x3d1d60fe	0.038422577
38	0x3ad303d0	0.0016099159
39	0xbe066430	-0.13124156
40	0xbdeeeec3	-0.11666634
41	0xbe2eacee	-0.17058155
42	0xbe2b31bd	-0.16718192
43	0xbc0d2a91	-0.008616106
44	0xbe54ffb9	-0.20800675
45	0xbc9630ec	-0.018333875
46	0xbd84659b	-0.06464692
47	0xbe52e8db	-0.2059664
48	0xbe0e92be	-0.13923165
49	0xbcb60985	-0.022221336
50	0xbe55c710	-0.20876718
51	0xbe0cd603	-0.13753514
52	0xbdecdddb	-0.11565753
53	0xbe1a669e	-0.15078208
54	0xbe8123b9	-0.25222567
55	0xbe7eaed8	-0.24871385
56	0xbc7b67f6	-0.01534461
57	0xbd4f7ba7	-0.050655033
58	0xbddf6229	-0.109073944
59	0xbcca8cd5	-0.024725357
60	0x3d4b5d7e	0.049649708
61	0x3d5d828c	0.054079577
62	0xbe8d5b7e	-0.27608865
63	0xbe8593ac	-0.26089227
64	0xbe63e5d2	-0.22255638
65	0xbd403c4e	-0.04693251
66	0xbe3a5d65	-0.1819969
67	0xbe20a0e4	-0.15686375
68	0xbe052bf9	-0.13005055
69	0xbde29710	-0.11063969
70	0xbe45b8c5	-0.19308765
71	0xbe22b35b	-0.15888731
72	0xbe8d8598	-0.27640986
73	0xbe4986ff	-0.19680403
74	0xbe30b4ad	-0.17256422
75	0xbde7a244	-0.113102466
76	0xbe384fda	-0.17999211
77	0xbd8a3caf	-0.06749856
78	0xbd612d08	-0.054974586
79	0xbe3c0399	-0.18360747
80	0xbe2fd15e	-0.17169711
81	0xbe40676b	-0.18789451
82	0xbe66ddb6	-0.22545514
83	0x3bf3fc5e	0.007445856
84	0xbe1ff862	-0.15622094
85	0xbc9345fc	-0.017977707
86	0xbd5a165f	-0.05324399
87	0xbe478b7a	-0.194868
88	0xbe2d8c35	-0.16948016
89	0x3c09b046	0.008403843
90	0xbd5e77b4	-0.054313377
91	0xbe340d07	-0.17583095
92	0xbe1e343e	-0.15449616
93	0xbdadc214	-0.08484283
94	0xbcdde1b0	-0.027085155
95	0xbe6744a5	-0.2258478
96	0xbe03fbfb	-0.12889092
97	0xbe48072f	-0.1953399
98	0xbded09ff	-0.11574172
99	0x3d8fa0db	0.070131026
100	0xbce3aaad	-0.027791345
101	0xbe0ab0e3	-0.1354404
102	0xbe6d1b21	-0.2315488
103	0xbe197e2f	-0.14989541
104	0xbdcb5a08	-0.099292815
105	0xbe05d3c0	-0.13069057
106	0xbe4f1ed8	-0.2022661
107	0xbe03ae36	-0.12859425
108	0xbdd30465	-0.103035726
109	0xbdb991c4	-0.09061006
110	0xbe5d19cb	-0.2159187
111	0xbdc7e191	-0.0975982
112	0x3dcbf31d	0.099584796
113	0xbe19ee54	-0.15032321
114	0xbe10a5c8	-0.1412574
115	0x3cd791e2	0.02631468
116	0xbddd2309	-0.10797698
117	0xbd15b228	-0.036546856
118	0xbdeef736	-0.116682455
119	0xbe53bec2	-0.20678237
120	0x3e119a22	0.14218953
121	0x3daa7310	0.08322728
122	0xbe640b52	-0.22269943
123	0xbe082cc6	-0.1329833
124	0xbe2af93a	-0.16696635
125	0xbb9d48f8	-0.0047999583
126	0xbd9f7e64	-0.07787779
127	0xbe7648bd	-0.24051185
128	0xbd38ac27	-0.045086052
129	0xbd68473c	-0.05670856
130	0xbe5c12a5	-0.21491487
131	0xbdef3280	-0.11679554
132	0xbe8bf4d5	-0.2733523
133	0xbde1db66	-0.11028175
134	0xbe2db6ae	-0.16964218
135	0xbdcf00f4	-0.10107604
136	0xbe21aa47	-0.15787612
137	0xbdc7799b	-0.09739991
138	0xbe0b18cf	-0.13583682
139	0xbe27908d	-0.16363735
140	0xbdbbcc47	-0.09169822
141	0xbde3fe61	-0.11132503
142	0xbe3cbc62	-0.18431237
143	0xbd91fc63	-0.07128217
144	0xbb7f727d	-0.0038978152
145	0xbd1aabf6	-0.03776165
146	0xbe950723	-0.29107007
147	0xbe405b0a	-0.18784729
148	0xbe430b47	-0.1904727
149	0xbe5cddd4	-0.21568996
150	0xbe6d970c	-0.23202151
151	0x3e149d48	0.14513123
152	0xbe464bfe	-0.19364926
153	0xbd171c70	-0.036892354
154	0xbde048bc	-0.10951373
155	0xbe395e2c	-0.1810233
156	0x3e21dc8a	0.15806785
157	0xbd61d35c	-0.05513321
158	0xbda96a73	-0.08272257
159	0xbd45cde9	-0.048292074
160	0xbe898a6d	-0.26863423
161	0xbd84f7b3	-0.064925574
162	0xbe0481fc	-0.1294021
163	0xbe1432f2	-0.14472559
164	0xbe6993d0	-0.22810292
165	0xbe346d2d	-0.17619772
166	0xbe50280d	-0.20327778
167	0xbe8209b1	-0.2539802
168	0xbe015b8c	-0.12632579
169	0xbd7625b5	-0.060094554
170	0xbe533d45	-0.20628841
171	0xbc30eb46	-0.010798281
172	0xbda027ee	-0.07820116
173	0x3e26aa1e	0.16275832
174	0xbe897bf7	-0.2685239
175	0xbe0ef0a8	-0.1395899
176	0xbdcecc94	-0.10097614
177	0xbe731b82	-0.23740962
178	0xbc29d542	-0.010365786
179	0xbd7380d5	-0.059449036
180	0xbd2d100f	-0.042251643
181	0xbe87c2b7	-0.26515743
182	0xbdfd1df4	-0.12359229
183	0xbd8cefd9	-0.06881685
184	0xbc16a2dc	-0.009194102
185	0x3c95323e	0.018212434
186	0xbe9fd883	-0.31219873
187	0xbcce17ad	-0.025157774
188	0xbe440c58	-0.19145334
189	0xbe7c668d	-0.24648495
190	0xbe49cb50	-0.19706464
191	0xbdaa310d	-0.08310137
192	0xbd687063	-0.056747805
193	0xbc63d693	-0.013906139
194	0xbdf434e6	-0.11924152
195	0x3d2918a0	0.04128325
196	0xbd9c4e4a	-0.0763212
197	0xbe0357d7	-0.12826477
198	0xbd37dcd5	-0.044888336
199	0xbe47009b	-0.19433825
200	0xbe656088	-0.22400105
201	0xbe1e30ae	-0.15448257
202	0xbe7293ae	-0.23689148
203	0xbdb122a5	-0.08649186
204	0xbd09ee2c	-0.033674404
205	0xbcda17fc	-0.026622765
206	0xbe0d8213	-0.1381915
207	0xbdde7043	-0.10861256
208	0xbd511a36	-0.051050387
209	0xbe2cb94a	-0.16867557
210	0xbd69e760	-0.057105422
211	0xbe7044b3	-0.23463707
212	0xbcc35061	-0.023842039
213	0xbe7287a1	-0.23684551
214	0xbe563568	-0.2091881
215	0xbe24b193	-0.16083364
216	0xbea561d1	-0.3230119
217	0x3da2bde8	0.07946378
218	0xbdff7a5c	-0.1247451
219	0xbd93fe5f	-0.07226252
220	0xbe69d335	-0.22834475
221	0xbe5f4e45	-0.21807201
222	0xbe214a00	-0.15750885
223	0xbd932d29	-0.07186348
224	0xbdf16e9d	-0.11788676
225	0xbddf8f8c	-0.10916051
226	0xbe41638a	-0.18885627
227	0xbdcfbbef	-0.10143267
228	0xbea52711	-0.32256368
229	0xbb62fee1	-0.0034636783
230	0xbd6b7ea5	-0.057493825
231	0xbe75a0f9	-0.23987187
232	0xbde6dde3	-0.1127279
233	0xbe597046	-0.21234235
234	0xbd33db68	-0.043910414
235	0xbe185fe9	-0.14880337
236	0x3d17168f	0.036886748
237	0xbbf21db1	-0.0073887934
238	0xbe8e0759	-0.2773998
239	0xbe15b0b0	-0.14618182
240	0x3e1e1422	0.15437368
241	0x3c31cefe	0.010852573
242	0xbe6c0e6a	-0.23052374
243	0xbd309bc3	-0.043117296
244	0xbe4f0a85	-0.20218857
245	0x3d54bad0	0.05193597
246	0xbcec69e8	-0.028859094
247	0xbe21dd68	-0.15807116
248	0xbe03be35	-0.12865527
249	0xbe157e0c	-0.14598864
250	0xbdc8aedb	-0.09798976
251	0xbdfa187a	-0.122117
252	0xbd5855cc	-0.052816197
253	0xbe0051f6	-0.12531266
254	0xbd0c4bdd	-0.034252036
255	0xbe24727f	-0.16059302

3.weight f4 [128, 256]
0	0x3e166746	0.14687833
1	0xbeb41511	-0.35172322
2	0x3e2503b5	0.16114695
3	0xbd2522ca	-0.04031638
4	0xbb970a70	-0.0046093985
5	0xbe85f32b	-0.26162085
6	0x3eae1cf8	0.34006476
7	0xbe9222be	-0.2854213
8	0xbe8bba12	-0.27290398
9	0x3e90ad49	0.28257206
10	0xbcb59e86	-0.022170316
11	0x3dd07953	0.10179391
12	0x3e2830cb	0.16424863
13	0x3ee35015	0.44397035
14	0x3d6a56ff	0.057211872
15	0xbe1493fe	-0.1450958
16	0xbe607464	-0.219194
17	0x3c39ec04	0.011347774
18	0x3eb6caaf	0.3570151
19	0x3d354b5f	0.044261333
20	0xbf0e0d3c	-0.55488944
21	0xbe928a9b	-0.28621373
22	0x3d813901	0.06309701
23	0x3e374b6a	0.17899862
24	0x3d5659a3	0.052331578
25	0xbe526239	-0.20545281
26	0x3e7f091d	0.2490582
27	0x3dd0c3f6	0.101936266
28	0xbccc193d	-0.024914378
29	0xbb4c6a6f	-0.003119137
30	0xbf83211f	-1.0244483
31	0xbdd26143	-0.102724575
32	0xbd545946	-0.05184295
33	0x3d9b56eb	0.07584938
34	0x3db40954	0.08790842
35	0xbccc0399	-0.02490406
36	0xbef5c97c	-0.48005283
37	0xbeb21466	-0.34781188
38	0xbcf83ff7	-0.030303938
39	0xbebcdcf5	-0.36887327
40	0x3dda9b0d	0.10674105
41	0xbf1ac8f1	-0.6046286
42	0xbcc9cb4c	-0.024633072
43	0x3d8f487d	0.06996248
44	0x3e0aa854	0.13540775
45	0xbd23d752	-0.040000267
46	0x3d34d114	0.044144705
47	0x3d983776	0.07432453
48	0xbd137417	-0.035999384
49	0xbec2b8d4	-0.38031638
50	0x3d9118bd	0.070847966
51	0x3db9db5d	0.09075043
52	0x3dbdcd7c	0.09267709
53	0x3ea038fe	0.31293482
54	0xbe242c0b	-0.16032426
55	0xbbde13ab	-0.006777247
56	0xbd8db102	-0.06918527
57	0xbe00cb9b	-0.1257767
58	0x3d941d10	0.07232106
59	0xbd5445e6	-0.051824473
60	0x3e3ffcb1	0.18748738
61	0xbec40ecd	-0.38292542
62	0xbe82b221	-0.25526527
63	0xbe387941	-0.18015005
64	0xbe39a225	-0.1812826
65	0x3ddeaa0c	0.108722776
66	0x3b3fd5dc	0.0029271757
67	0x3d2223c9	0.03958491
68	0xbdf2e4ae	-0.118600234
69	0x3e14923d	0.1450891
70	0xbe182622	-0.14858297
71	0x3e8f2591	0.27958348
72	0xbd6c40f1	-0.05767912
73	0x3b66b034	0.003520024
74	0xbe107836	-0.14108357
75	0x3e4f402a	0.2023932
76	0xbded726e	-0.11594091
77	0x3d4e074a	0.05029992
78	0x3dd803c2	0.10547592
79	0x3e1dca95	0.1540931
80	0xbe02ef15	-0.12786515
81	0x3cdac974	0.026707388
82	0xbef75a46	-0.4831106
83	0xbda5db7e	-0.080985054
84	0x3e099f48	0.13439667
85	0x3d0c778e	0.034293704
86	0x3d7a5f2c	0.06112592
87	0xbedd2990	-0.43195772
88	0xbd467d5b	-0.048459392
89	0xbe00d996	-0.12583002
90	0xbd534564	-0.051579848
91	0x3ea9416a	0.3305772
92	0x3d8caa41	0.06868411
93	0x3cb10263	0.021607583
94	0x3c8e6eb4	0.017386772
95	0xbe27001f	-0.1630864
96	0x3cc13549	0.023584979
97	0x3e203c5c	0.15648025
98	0x3b0fa220	0.0021916702
99	0xbef35599	-0.47526243
100	0xbf2515b8	-0.64486265
101	0x3e11c1ab	0.14234035
102	0xbda3f4c1	-0.080056675
103	0x3db1e9f6	0.08687203
104	0x3e2ca6dd	0.16860528
105	0xbd9fa74f	-0.077955835
106	0xbddb5bdb	-0.107108794
107	0x3e14deae	0.1453807
108	0xbdaea93d	-0.085283734
109	0x3ccedeed	0.025252784
110	0xbdf85b7f	-0.121268265
111	0x3d81a7af	0.06330811
112	0xbe2880c8	-0.16455376
113	0x3b90dd68	0.004420925
114	0x3e2ee30b	0.17078798
115	0xbdb0f240	-0.086399555
116	0xbea60114	-0.32422698
117	0xbe586c94	-0.2113517
118	0xbe2f800a	-0.17138687
119	0x3d211b75	0.039332826
120	0xbe428749	-0.1899692
121	0xbecef231	-0.40419152
122	0x3d2760ee	0.040863924
123	0xbedb8122	-0.42871958
124	0x3e323c42	0.17405799
125	0x3ea775bf	0.3270702
126	0xbe6eac3a	-0.23307887
127	0xbd33ac31	-0.043865386
128	0x3ba1469a	0.0049217464
129	0x3dccc8fc	0.09999272
130	0xbb9c622a	-0.0047724443
131	0xbe20153b	-0.15633099
132	0xbde7a257	-0.11310261
133	0x3d040c55	0.032238323
134	0x3e4195d3	0.1890481
135	0x3d314271	0.043276254
136	0xbd0e719c	-0.034776315
137	0x3cb18ae0	0.021672666
138	0xbd76baa3	-0.060236584
139	0xbef901d1	-0.48634198
140	0x3dd5a8c3	0.10432579
141	0x3e3e5f2a	0.1859099
142	0xbcf6bc83	-0.030119186
143	0xbdf22322	-0.11823107
144	0x3e2259c2	0.15854552
145	0x3d1190de	0.035538547
146	0x3d7aea29	0.06125847
147	0xbbef82ca	-0.0073092924
148	0xbda5bd8c	-0.08092794
149	0xbf1f301e	-0.62182796
150	0xbe27fc0f	-0.16404746
151	0x3e644c9e	0.22294852
152	0x3d123004	0.035690323
153	0x3caba843	0.020954257
154	0xbc69006f	-0.014221295
155	0xbd5e9a7c	-0.054346547
156	0xbe9ce297	-0.30641624
157	0x3d4f42ab	0.05060069
158	0xbe87216e	-0.26392692
159	0x3cfa8e54	0.030585445
160	0x3d8d65de	0.06904195
161	0x3d378659	0.04480586
162	0x3cfff295	0.031243602
163	0xbf2b7c1b	-0.66986245
164	0xbe1545da	-0.14577428
165	0xbefdd5eb	-0.4957727
166	0xbd079c86	-0.033108257
167	0x3d9a079e	0.07520984
168	0x3d1419b7	0.036157336
169	0x3df20057	0.11816471
170	0x3da8c4c1	0.08240653
171	0xbd874b2d	-0.066061355
172	0xbeddc951	-0.43317655
173	0x3e7ef5c6	0.24898443
174	0x3dd2afa2	0.102874056
175	0xbd332772	-0.04373879
176	0xbbd300a6	-0.0064392863
177	0xbde04e49	-0.10952432
178	0xbf087acd	-0.5331238
179	0xbceea1ef	-0.02912995
180	0x3e424adf	0.18973874
181	0xbd904ab9	-0.07045502
182	0xbedf208d	-0.43579522
183	0xbee2136d	-0.44155446
184	0xbc84b4f7	-0.016199572
185	0xbaf22448	-0.0018473947
186	0xbefe8f02	-0.4971848
187	0xbd56d1ff	-0.05244636
188	0x3dd581f1	0.10425175
189	0xbddd5bef	-0.108085506
190	0xbed0c97f	-0.4077873
191	0xbe456d32	-0.19279936
192	0x3e3ec108	0.18628323
193	0x3db959ea	0.09050353
194	0xbf0917f6	-0.53552186
195	0x3e9cbddd	0.30613604
196	0xbebf042a	-0.37307864
197	0x3e8fe2a4	0.281026
198	0xbec927b6	-0.3928811
199	0x3daf8985	0.08571152
200	0xbebdde50	-0.37083673
201	0xbcf1d360	-0.029519737
202	0xbe3a381b	-0.18185465
203	0xbef8d604	-0.4860078
204	0x3b70e701	0.0036758783
205	0x3c9e338e	0.019311693
206	0xbe981e02	-0.29710394
207	0x3be54602	0.006996871
208	0xbc3e53df	-0.011616676
209	0xbc45c375	-0.012070526
210	0x3da0d160	0.07852435
211	0xbc4ce62c	-0.012506049
212	0xba80bf1f	-0.0009822584
213	0x3ed8eb0e	0.42366832
214	0xbe5d147b	-0.21589844
215	0xbe38b232	-0.18036726
216	0xbe6ead40	-0.23308277
217	0xbc6b6119	-0.014366412
218	0xbbad6b25	-0.0052923136
219	0x3da7559b	0.08170625
220	0xbd251eaf	-0.040312465
221	0x3d0e7a8c	0.03478484
222	0x3cf553db	0.029947212
223	0x3d3093a5	0.043109555
224	0xbdfd1a20	-0.123584986
225	0x3df2a0c5	0.118470706
226	0x3d232dd8	0.039838642
227	0x3d5c68da	0.05381093
228	0xbe630591	-0.22170092
229	0x3cfd2227	0.030900074
230	0x3d2251fa	0.03962896
231	0xbd2363a1	-0.039889935
232	0x3e593faa	0.21215692
233	0x3e1865d8	0.148826
234	0x3e4c58bc	0.19955724
235	0xbed818f6	-0.42206544
236	0xbe187a7d	-0.14890476
237	0x3bf3cd5c	0.007440252
238	0x3e88ed9e	0.26743788
239	0xbe4f3537	-0.20235144
240	0x3d824a08	0.063617766
241	0xbc820ee0	-0.015876234
242	0x3dd829d2	0.105548516
243	0x3cc73589	0.02431752
244	0x3caed950	0.021343857
245	0xbf03cac4	-0.5148127
246	0x3cb809c1	0.022465589
247	0x3e31fef4	0.17382413
248	0x3e586ca2	0.2113519
249	0xbe93d18a	-0.28870803
250	0x3c24e5e5	0.010064577
251	0xbdf8cdd5	-0.12148634
252	0x3c0dc7a9	0.00865356
253	0xbc612fe5	-0.013744329
254	0x3bd1c079	0.0064011184
255	0xbf0474e5	-0.51740867

3.bias f4 [128]
0	0xbe9e6d92	-0.3094297
1	0x3efae46c	0.49002397
2	0x3ec17bf5	0.37789884
3	0x3e248ea1	0.16070034
4	0x3f6b0e07	0.9181828
5	0x3ede5dca	0.4343093
6	0xbe86f6d1	-0.2636018
7	0xbf8813dd	-1.0631062
8	0xbf2cae9c	-0.6745393
9	0x3e7070b5	0.23480494
10	0xbf5a5ebe	-0.85300815
11	0xbe12c869	-0.14334263
12	0x3ee360a7	0.44409677
13	0xbc54e9f2	-0.01299523
14	0x3e30c702	0.17263415
15	0xbf50dcaf	-0.81586736
16	0x3df3ca28	0.119037926
17	0x3e85e8ef	0.26154277
18	0xbea56eaf	-0.32311007
19	0xbf043f61	-0.5165921
20	0x3eb22ab6	0.3479821
21	0xbeb66774	-0.35625803
22	0x3f77f888	0.96863604
23	0x3e9ad9b2	0.30244213
24	0xbf27cd4a	-0.6554762
25	0xbe4b6de3	-0.19866137
26	0xbe6aaee8	-0.22918284
27	0x3eac9feb	0.33715758
28	0xbed7016b	-0.4199327
29	0x3d9fddb3	0.07805958
30	0xbd1bc721	-0.0380317
31	0x3f1de3a8	0.616755
32	0x3f558ad6	0.8341497
33	0x3eddc8b3	0.43317184
34	0x3f09b765	0.5379546
35	0x3f26c02d	0.65136987
36	0xbefe4d8d	-0.49668542
37	0xbf3f28f0	-0.7467184
38	0x3eba4cee	0.36386818
39	0xbe18347d	-0.14863773
40	0x3eaccf63	0.33751974
41	0xbe14a874	-0.14517385
42	0x3e423e99	0.18969192
43	0x3dc6e73a	0.09712072
44	0xbebeeeff	-0.37291715
45	0xbf01a2ca	-0.5063902
46	0x3e96392a	0.29340488
47	0xbf1e526c	-0.61844516
48	0xbe676f9c	-0.2260117
49	0x3e2a3ce1	0.16624786
50	0xbeb91961	-0.36152175
51	0xbf42549c	-0.75910354
52	0xbf06fd9e	-0.5273074
53	0x3e9efd0a	0.31052428
54	0x3eced2f5	0.40395322
55	0xbf5f7de6	-0.8730148
56	0xbe273227	-0.16327725
57	0xbf2ca0a1	-0.674326
58	0xbe272718	-0.16323507
59	0x3e7de3a4	0.2479387
60	0x3ec634fa	0.38712293
61	0x3dcdc582	0.10047437
62	0x3f1225ef	0.5708913
63	0x3d4c79ae	0.04992073
64	0xbd64e9aa	-0.055886902
65	0x3d8fdee8	0.07024938
66	0xbf535489	-0.82550865
67	0x3f6c35c4	0.9226954
68	0x3f06ed62	0.5270597
69	0x3d58de14	0.052946165
70	0x3e3b147f	0.18269537
71	0xbd45eb4f	-0.04832011
72	0x3e9b3342	0.30312544
73	0x3ed3643e	0.41287416
74	0x3f08fae0	0.53507805
75	0xbdb330b0	-0.08749521
76	0xbf74fbbf	-0.95696634
77	0xbee85144	-0.453745
78	0xbf01d504	-0.5071566
79	0x3e9e21d6	0.3088519
80	0xbe0edc24	-0.13951164
81	0xbf190b1f	-0.59782594
82	0x3f4f3cc0	0.8095207
83	0x3ef8072c	0.48442972
84	0xbf613782	-0.87975323
85	0x3ec67bc3	0.38766298
86	0xbe0263b6	-0.12733349
87	0x3f10fb97	0.56633896
88	0x3d1d7d06	0.03844931
89	0x3e947c01	0.29000857
90	0xbe86bef8	-0.26317573
91	0x3f6c23cb	0.92242116
92	0xbe07ff25	-0.13280924
93	0xbe98192f	-0.29706714
94	0x3eca3e57	0.39500687
95	0x3e66030c	0.224621
96	0x3ed3860a	0.413132
97	0x3f02a7f3	0.5103752
98	0xbe9c9eca	-0.30589896
99	0x3f33efa2	0.70287526
100	0x3d25b4cb	0.04045562
101	0x3df34b42	0.11879589
102	0x3eb4a257	0.35280105
103	0x3f845d8c	1.0341048
104	0xbe4d4eda	-0.2004961
105	0x3e2e7504	0.17036825
106	0x3f5420ad	0.8286236
107	0x3bec646a	0.0072141187
108	0x3f071460	0.52765465
109	0xbf4389d6	-0.76382196
110	0xbde83680	-0.1133852
111	0x3f1b3faf	0.6064405
112	0xbf69a968	-0.9127412
113	0x3e9224fb	0.2854384
114	0x3f06bfaf	0.52636236
115	0xbd66e282	-0.05636836
116	0xbd8e5cad	-0.0695127
117	0xbe1f1f8a	-0.15539375
118	0xbe94c2f3	-0.29054984
119	0x3eeb7fe3	0.45996007
120	0x3f64f15e	0.894308
121	0xbe292c2d	-0.16520758
122	0x3e87979e	0.26482862
123	0xbe23678f	-0.15957473
124	0xbeb70da5	-0.35752597
125	0xbd8617a9	-0.065474816
126	0x3e6b67dc	0.22988838
127	0x3f04fc5f	0.5194759

6.weight f4 [64, 128]
0	0xbdf8843f	-0.12134599
1	0xbf1ba8b0	-0.6080427
2	0xbd85f2db	-0.06540462
3	0xbf287549	-0.6580396
4	0xbe8d7718	-0.27629924
5	0x3e19f5fb	0.1503524
6	0x3ddecda1	0.10879064
7	0x3e51f3d2	0.20503166
8	0x3c8f43d4	0.017488398
9	0xbebdba8f	-0.37056395
10	0xbdd23eb7	-0.10265868
11	0xbf394b71	-0.7238074
12	0x3d4302cd	0.047610093
13	0x39d3a292	0.0004036618
14	0x3e20269b	0.15639727
15	0x3e8db812	0.27679497
16	0xbd9aea2f	-0.07564198
17	0xbd82f548	-0.0639444
18	0x3daf8517	0.08570307
19	0x3e1edffc	0.15515131
20	0xbe1db6f4	-0.15401822
21	0x3e3e26f2	0.18569544
22	0xbf05ba11	-0.5223704
23	0xbe93998f	-0.28828093
24	0x3e008f29	0.12554611
25	0x3e96c999	0.29450682
26	0x3dd440d5	0.10363928
27	0x3e315ff6	0.17321762
28	0x3dfcf601	0.12351609
29	0xbc6a67b9	-0.014306956
30	0xbd8774a4	-0.06614044
31	0x3d8f8ff3	0.07009878
32	0xbf0cd4d5	-0.55012256
33	0xbf6e0cb4	-0.92988133
34	0xbd71a8e4	-0.058998957
35	0x3e239c3d	0.15977569
36	0xbd9e95de	-0.07743429
37	0xbe7de7c5	-0.24795444
38	0x3e3883e1	0.18019058
39	0x3e1991cf	0.14997028
40	0xbe591408	-0.21199048
41	0xbcf27f1e	-0.02960163
42	0x3d73bcfe	0.05950641
43	0xbeb926b6	-0.36162347
44	0x3e4878ee	0.19577381
45	0x3e5ad00e	0.21368429
46	0xbe0b8f16	-0.13628802
47	0x3d91b115	0.07113854
48	0x3e3470cf	0.17621158
49	0x3e11c45d	0.14235063
50	0xbbd88b5b	-0.0066084093
51	0xbc3b985a	-0.011449898
52	0xbc6c16f6	-0.014409771
53	0xbcd9ddcf	-0.026595024
54	0xbe274fa6	-0.16338977
55	0x3d84729e	0.06467174
56	0xbe421241	-0.18952276
57	0x3d82c738	0.06385654
58	0xbea122c1	-0.31471828
59	0x3cefe063	0.0292818
60	0xbd647a2e	-0.055780582
61	0xbdc587c9	-0.096450396
62	0x3b123d30	0.0022314303
63	0x3db0fde9	0.086421795
64	0x3e985072	0.29748875
65	0xbc2b04a2	-0.010438116
66	0xbe1440c0	-0.14477825
67	0xbf37d6ed	-0.71812326
68	0x3e802564	0.25028527
69	0x3e2e2ead	0.17009993
70	0x3df950b9	0.121736
71	0xbeace6c2	-0.33769804
72	0xbe0bf0c4	-0.13666064
73	0xbe0dc7c6	-0.13845739
74	0xbdbfaa47	-0.0935865
75	0xbdf10af5	-0.11769668
76	0x3c9c18d8	0.019054815
77	0x3c0fea8d	0.008783949
78	0xbc6574d6	-0.014004907
79	0x3ccb875d	0.02484482
80	0xbd96baa4	-0.073598176
81	0x3dd0e4c0	0.101998806
82	0xbdeaf5e5	-0.11472682
83	0x3e0bd920	0.13657045
84	0x3db45e96	0.08807103
85	0x3d21800e	0.039428763
86	0xbe96156c	-0.2931322
87	0xbf0d81eb	-0.55276364
88	0xbe2ae6d0	-0.1668961
89	0xbec24b66	-0.3794815
90	0xbeb2973d	-0.3488101
91	0xbe443b4d	-0.19163246
92	0x3d4c1988	0.049829036
93	0xbe6d4356	-0.23170218
94	0x3c2258cc	0.009908866
95	0xbd69577c	-0.056968197
96	0x3dfa3472	0.122170344
97	0xbec9b9b7	-0.39399502
98	0x3e2ccd26	0.16875133
99	0xbd081412	-0.033222266
100	0x3d4b48b3	0.04962988
101	0xbbe2bcac	-0.006919464
102	0xbd66021a	-0.056154348
103	0x3d33a203	0.04385568
104	0xbd8185e3	-0.06324365
105	0xbc672d02	-0.014109852
106	0xbead7395	-0.33877245
107	0x3c11b3bd	0.008892951
108	0xbe3eeabf	-0.18644236
109	0xbe35befd	-0.17748637
110	0x3e0e83be	0.13917443
111	0xbe34eb5e	-0.1766791
112	0xbe5ed2c2	-0.21760085
113	0xbf0ddc67	-0.5541443
114	0xbe68def6	-0.22741303
115	0x3dd3dee6	0.10345249
116	0xbe8cd3ca	-0.27505332
117	0xbe00c58a	-0.12575355
118	0x3e281c08	0.16416943
119	0xbed26419	-0.41091993
120	0x3cc70017	0.024292035
121	0x3cb8b558	0.022547409
122	0xbeba7424	-0.36416733
123	0xbd638b90	-0.05555302
124	0x3dad66ce	0.08466874
125	0xbf32f8e5	-0.6991103
126	0x3ddbae74	0.10726634
127	0xbe9506cd	-0.2910675
128	0xbc67c52b	-0.01414613
129	0xbe83ecd9	-0.25766638
130	0xbe41e163	-0.18933634
131	0xbd09b163	-0.033616435
132	0x3e126cc1	0.14299299
133	0x3d8bc5fb	0.06824871
134	0x3e88bde8	0.26707387
135	0xbdbaaa75	-0.09114543
136	0xbddd627d	-0.10809801
137	0x3c4726cf	0.012155249
138	0xbd8c9501	-0.06864358
139	0xbe532061	-0.2061782
140	0x3e191767	0.14950334
141	0x3db92491	0.090401776
142	0xbf1a70a1	-0.6032811
143	0x3e896d79	0.26841334
144	0x3e496081	0.1966572
145	0x3e155c0b	0.14585893
146	0x3be862fc	0.007091878
147	0xbd89f8d8	-0.06736916
148	0xbe6176f7	-0.22018038
149	0xbd270c76	-0.040783368
150	0x3dba59eb	0.09099182
151	0xbd6f102e	-0.05836504
152	0xbdbd9f95	-0.092589535
153	0x3e0f6f17	0.14007221
154	0x3ec2f7e6	0.38079756
155	0xbe13e02d	-0.14440985
156	0xbca04191	-0.019562514
157	0xbcc6b4c2	-0.024256114
158	0xbeb0809e	-0.34473127
159	0xbc6923ad	-0.014229697
160	0x3d842877	0.064530306
161	0xbe10a2b7	-0.14124571
162	0x3ce4de76	0.027938109
163	0xbe6a1709	-0.2286035
164	0x3e6c2025	0.23059137
165	0xbde4faa0	-0.111806154
166	0x3e0f766d	0.1401002
167	0xbea0c3c7	-0.31399366
168	0x3e09d8be	0.13461587
169	0xbea8bbd3	-0.32955799
170	0x3c45ed07	0.0120804375
171	0xbdf8bac4	-0.12144998
172	0xbea3247e	-0.3186378
173	0xbe5f6bc2	-0.2181845
174	0xbedbae96	-0.42906636
175	0xbb2c3827	-0.0026278587
176	0xbecf63ab	-0.40505728
177	0x3e2ef707	0.17086421
178	0x3cfa79da	0.030575681
179	0x3d87d3d2	0.066321984
180	0xbea41226	-0.32045096
181	0xbdb142e6	-0.08655338
182	0xbe5893b0	-0.21150088
183	0xbd06175f	-0.032737132
184	0x3ce5a2a1	0.028031649
185	0x3dea7ef7	0.11449998
186	0x3d1b4957	0.03791174
187	0x3e220e0a	0.15825668
188	0x3d74b5d0	0.059743702
189	0x3d19e694	0.037573412
190	0x3e7e6085	0.24841507
191	0x3ecc3be7	0.39889452
192	0xbe6bf604	-0.23043066
193	0x3d949ea0	0.07256818
194	0xbead6429	-0.3386548
195	0xbe1d6487	-0.1537038
196	0x3e79bf86	0.24389467
197	0xbf0c7572	-0.5486671
198	0xbd581ca9	-0.052761707
199	0xbea0c03d	-0.31396666
200	0x3e828f3f	0.25499913
201	0x3dfdb8da	0.12388773
202	0x3d06ff17	0.032958116
203	0xbe8d634c	-0.2761482
204	0x3def2618	0.11677188
205	0xbdfe8b11	-0.124288686
206	0xbe010195	-0.1259826
207	0xbeb93c3c	-0.36178768
208	0x3e100bb5	0.14066966
209	0x3c72c6eb	0.014817934
210	0x3c4d50b1	0.012531445
211	0x3d9fdd6b	0.07805904
212	0xbb8c744c	-0.0042863246
213	0xbefa46df	-0.48882195
214	0x3dbe3232	0.09286918
215	0x3da0e820	0.07856774
216	0x3e974216	0.29542607
217	0x3dcbac57	0.099449806
218	0x3d7ff69f	0.062491056
219	0xbdaaa108	-0.083314955
220	0xbee2af0a	-0.4427417
221	0xbec2034f	-0.3789315
222	0x3e853701	0.26018527
223	0xbe2d039c	-0.16895908
224	0x3e6f8ec9	0.23394312
225	0xbdbb21d8	-0.091373146
226	0x3e41302b	0.18866031
227	0xbf2bd16b	-0.6711642
228	0x3ea39065	0.31946102
229	0xbe671b81	-0.22569086
230	0x3da9b15d	0.082857825
231	0x3e6b3abc	0.22971624
232	0x3e0965c2	0.13417724
233	0xbe0ac7d2	-0.13552788
234	0x3e92d475	0.28677717
235	0xbd3ecbe7	-0.046581175
236	0xbd208ff0	-0.03919977
237	0xbeb0454b	-0.34427866
238	0x3e19d6bc	0.15023321
239	0x3d0ddbb3	0.03463335
240	0x3dcaea3f	0.0990796
241	0x3c3f9303	0.011692765
242	0xbd8719bc	-0.06596705
243	0x3e19db76	0.15025124
244	0x3e92ca61	0.28670028
245	0xbd73f6b2	-0.05956144
246	0xbd76f4f5	-0.060292203
247	0xbda578ba	-0.080796674
248	0x3e7329b2	0.23746374
249	0xbdd01c7d	-0.10161684
250	0x3de056be	0.10954045
251	0xbe21fe0b	-0.15819566
252	0xbc249153	-0.010044414
253	0x3d101029	0.03517166
254	0xbe2dcbbf	-0.16972254
255	0x3df99f10	0.12188542

6.bias f4 [64]
0	0x3eca2ad7	0.3948581
1	0x3f4a4f58	0.7902732
2	0x3f3299b4	0.6976578
3	0x3f0614e5	0.5237563
4	0x3f59bd59	0.85054547
5	0x3e547ea8	0.2075144
6	0x3f5752ae	0.84110534
7	0x3f1a59b1	0.6029311
8	0x3f8741f2	1.0567
9	0x3f6c3e63	0.92282695
10	0x3f445576	0.76692903
11	0x3eaf7d99	0.3427551
12	0x3f02179e	0.50817287
13	0x3f9659cd	1.1746155
14	0xbcab915d	-0.020943338
15	0x3fa11f7f	1.2587737
16	0x3f1f1985	0.62148315
17	0x3f69b775	0.9129556
18	0x3f6f8414	0.9356091
19	0x3f519f6f	0.818839
20	0x3f4d2539	0.8013492
21	0x3f78e6cf	0.97227186
22	0x3f71c84c	0.94446254
23	0x3f4772d9	0.7790962
24	0x3eae0b02	0.33992773
25	0x3e934333	0.28762206
26	0x3f4581f0	0.77151394
27	0x3f2afe3c	0.6679418
28	0xbefdb711	-0.4955373
29	0x3f55bf8f	0.8349542
30	0x3f109764	0.56481004
31	0x3f938610	1.1525288
32	0x3f1bb8f3	0.60829085
33	0x3ed94da8	0.4244206
34	0x3f126783	0.57189196
35	0x3f0ce868	0.55042124
36	0x3f1fd37c	0.62432075
37	0x3ee5d4f6	0.4488904
38	0x3f3d3a3b	0.7391698
39	0x3f7172f1	0.9431601
40	0x3f62530a	0.8840796
41	0x3ecb3563	0.39689168
42	0x3ed47e69	0.41502693
43	0x3f6ebc1b	0.93255776
44	0x3f642743	0.8912241
45	0x3f7cb566	0.9871429
46	0x3f1e9951	0.6195269
47	0x3f5b1b2f	0.85588354
48	0x3f876235	1.0576845
49	0x3f80f6f3	1.0075363
50	0xbf637b22	-0.8885976
51	0x3f8c551a	1.0963471
52	0x3f80218a	1.0010235
53	0x3f7718e1	0.9652234
54	0x3f8144f2	1.0099165
55	0x3f6b3a27	0.9188561
56	0x3f87dccd	1.0614258
57	0x3f0fbf3d	0.5615118
58	0x3f4cb364	0.7996123
59	0x3f7c3772	0.985221
60	0xbe90a3c6	-0.2824995
61	0x3f73fa10	0.9530344
62	0x3faefd91	1.3671132
63	0x3f70dd77	0.9408793

9.weight f4 [10, 64]
0	0xbdebdf4e	-0.11517201
1	0xbda1614e	-0.078798875
2	0xbe148a81	-0.1450596
3	0xbda0fd33	-0.07860794
4	0xbeb00400	-0.34378052
5	0xbe8105c7	-0.2519972
6	0xbd8b1c6d	-0.06792531
7	0x3c35f19f	0.01110497
8	0xbcf0b906	-0.029385101
9	0x3dc105a7	0.09424906
10	0x3db4f1c4	0.08835176
11	0x3bc4db0d	0.006007558
12	0xbea2eb01	-0.3181992
13	0x3d3f73eb	0.046741407
14	0xbe0cdf2b	-0.13757007
15	0xbe4651aa	-0.1936709
16	0xbe45cfb6	-0.19317517
17	0xbe39c9ea	-0.1814343
18	0xbd2cbd0e	-0.042172484
19	0xbd0da0dd	-0.03457724
20	0x3d835c37	0.06414073
21	0xbcac7671	-0.021052571
22	0x3ddcc780	0.10780239
23	0x3d5b5f31	0.05355758
24	0xbd1ba491	-0.03799874
25	0xbe80fd70	-0.25193357
26	0x3d5d2cc3	0.053997766
27	0xbec33fd9	-0.3813465
28	0xbe83f65e	-0.257739
29	0xbed007bd	-0.40630904
30	0xbe039c4f	-0.12852596
31	0xbcd956a0	-0.026530564
32	0x3cff7497	0.031183524
33	0xbe1323fb	-0.14369194
34	0xbd404191	-0.04693753
35	0x3d8026b1	0.0625738
36	0x3d97eca7	0.07418185
37	0xbdb11681	-0.086468704
38	0xbec13c6b	-0.37741408
39	0xbf2cf2d0	-0.67558
40	0x3d69b756	0.05705961
41	0xbd974d6a	-0.073878124
42	0xbd0317c4	-0.032005087
43	0x3bcd674c	0.0062684175
44	0xbd7fa2ae	-0.062411003
45	0xbe89a35c	-0.26882446
46	0x3d6d0057	0.057861652
47	0xbf0117b2	-0.5042678
48	0x3c99ac89	0.018759029
49	0x3da9a2ce	0.08283006
50	0xbe049020	-0.12945604
51	0x3c9b50d6	0.018959444
52	0xbdce6a40	-0.10078859
53	0x3dc61aab	0.09673055
54	0x3d103d4f	0.03521472
55	0x3dcb4cfd	0.09926794
56	0xbdac6b64	-0.08418921
57	0xbc6ad786	-0.014333611
58	0xbd7bc2b1	-0.06146497
59	0xb95d5078	-0.0002110618
60	0xbe67954e	-0.22615549
61	0x3da29977	0.07939427
62	0x3db5cddd	0.08877156
63	0x3cc40afa	0.023931015
64	0xbed2322a	-0.41053897
65	0xbd267dfb	-0.040647488
66	0xbc85e378	-0.016343817
67	0xbe33bde0	-0.175529
68	0xbf261846	-0.6488079
69	0xbea033ab	-0.3128942
70	0xbecae3ae	-0.3962683
71	0xbd8ba8ff	-0.06819343
72	0xbe98953b	-0.29801354
73	0xbe69836f	-0.22804044
74	0xbd4da506	-0.050206207
75	0x3deefad3	0.11668935
76	0xbe983464	-0.2972747
77	0xbea4f60d	-0.32218972
78	0xbe600546	-0.21877012
79	0xbe1dafbd	-0.1539907
80	0xbe81794a	-0.2528785
81	0xbeb1f2ef	-0.34755656
82	0x3dd565f9	0.1041984
83	0xbd751e04	-0.05984308
84	0x3dca48c8	0.09877163
85	0xbdf1dc97	-0.11809652
86	0xbea7406f	-0.32666346
87	0x3d6c5a6b	0.057703417
88	0x3d09593a	0.03353236
89	0xbe355f24	-0.17712075
90	0x3d8549d8	0.06508225
91	0xbeea20e3	-0.45728216
92	0xbef81d03	-0.48459634
93	0xbde0081c	-0.10939047
94	0xbe3c826b	-0.18409126
95	0xbe43940b	-0.19099443
96	0x3d9cf972	0.076647654
97	0xbe01930c	-0.1265375
98	0x3dd99a80	0.10625172
99	0xbe6dcbd8	-0.23222291
100	0xbd9fc81c	-0.0780184
101	0xbec23a5f	-0.3793516
102	0xbe3e27c2	-0.18569854
103	0xbf2018d1	-0.62537867
104	0xbe459eac	-0.1929881
105	0xbd41b90d	-0.04729562
106	0x3d68661f	0.056738015
107	0x3dee3aa9	0.11632282
108	0xbd555ccc	-0.05209045
109	0xbe10a7bb	-0.14126484
110	0xbd13b49d	-0.036060918
111	0xbede4a48	-0.43416047
112	0xbced549f	-0.028971015
113	0x3ce36028	0.027755812
114	0xbdb08239	-0.08618588
115	0xbc8573a0	-0.016290486
116	0x3d1c0a8e	0.038096003
117	0x3be216cb	0.00689969
118	0xbe9873fc	-0.2977599
119	0x3dc333f4	0.09531394
120	0xbef8f57a	-0.48624784
121	0x3db2a5c5	0.08723024
122	0x3e2d2e10	0.16912103
123	0x3bf2a2d6	0.0074046655
124	0xbea4bf5e	-0.32177252
125	0x3d087f9b	0.03332482
126	0xbe4f46fa	-0.20241919
127	0xbd2c104c	-0.04200773
128	0xbe9fa651	-0.31181577
129	0x3c910029	0.017700272
130	0xbc27bf0a	-0.010238418
131	0x3ccdb7ad	0.025111998
132	0xbeff1cf2	-0.4982677
133	0xbee2fbb6	-0.44332665
134	0xbd0785d0	-0.033086598
135	0xbe4d6f29	-0.20061935
136	0xbe38bcea	-0.18040815
137	0xbdc2872d	-0.09498439
138	0xbccd57f6	-0.025066357
139	0x3d87ecd2	0.06636967
140	0xbeafb1ee	-0.34315437
141	0x3d8020a1	0.062562235
142	0xbe34b6df	-0.17647885
143	0xbda38315	-0.07983986
144	0x3dbb2598	0.0913803
145	0xbd110a4a	-0.035410203
146	0xbd53704b	-0.051620763
147	0xbda3dab2	-0.08000697
148	0xbd59d6e6	-0.05318346
149	0x3dcf6289	0.10126216
150	0x3d5bcf44	0.05366446
151	0xbe02932f	-0.12751459
152	0x3d517ed6	0.05114635
153	0xbe825c65	-0.25461116
154	0xbdcfd049	-0.10147149
155	0xbf1cd7e1	-0.61266905
156	0xbe1996e3	-0.14998965
157	0xbf026c2b	-0.509463
158	0x3d54e6af	0.05197781
159	0x3d1cf57b	0.038320046
160	0x3d9812be	0.0742545
161	0xbeb685a3	-0.35648832
162	0x3c25c26d	0.0101171555
163	0xbc616930	-0.013757989
164	0x3db1effa	0.0868835
165	0x3d9d3d51	0.07677711
166	0xbdb7bfef	-0.08972155
167	0xbf1f9a04	-0.62344384
168	0x3db781bb	0.08960291
169	0xbe2174b1	-0.1576717
170	0xbe4659f2	-0.19370249
171	0x3cdb8ac5	0.026799569
172	0x3db8c52f	0.09021985
173	0xbecf9eea	-0.4055093
174	0x3cd96606	0.026537906
175	0xbf0d706c	-0.5524967
176	0x3d329577	0.043599572
177	0xbdda548d	-0.10660658
178	0xbea6186d	-0.3244051
179	0x3d08da41	0.03341127
180	0x3d4ed173	0.050492715
181	0xbd83b6a8	-0.06431323
182	0xbd37221e	-0.04471027
183	0xbd5700d1	-0.052491013
184	0x3e0a79a8	0.1352297
185	0xbe07dd39	-0.13267983
186	0x3d676134	0.056489184
187	0x3d46e0f6	0.048554383
188	0xbeda6f47	-0.42663023
189	0x3d4332f1	0.047656003
190	0x3da50259	0.080570884
191	0xbe0dc0c6	-0.13843068
192	0xbe43db9f	-0.19126748
193	0x3cf52ebb	0.02992951
194	0xbe25c03b	-0.16186611
195	0x3c72db32	0.014822768
196	0xbf10e6b0	-0.56602
197	0xbe239932	-0.15976408
198	0x3cd7581b	0.02628713
199	0xbe8e9960	-0.2785139
200	0xbe79b534	-0.2438553
201	0xbdcfc370	-0.101446986
202	0x3dfef4f9	0.124490686
203	0x3d15b263	0.036547076
204	0xbea5c7ed	-0.32379094
205	0xbe308b5a	-0.17240658
206	0xbe9eae37	-0.3099229
207	0xbc46438f	-0.012101068
208	0xbeaeee38	-0.3416612
209	0xbdb7b3e5	-0.08969859
210	0x3d90642a	0.07050355
211	0xbd6e8c62	-0.05823935
212	0x3df60938	0.12013477
213	0xbe9a9296	-0.3018996
214	0x3dafdf01	0.085874565
215	0x3dba4d57	0.09096783
216	0xbdf1c8b0	-0.11805856
217	0xbed4ddc1	-0.41575435
218	0xbd8b54c8	-0.0680328
219	0xbeb5e8b3	-0.35529098
220	0xbebe01d7	-0.3711078
221	0xbe90e0b1	-0.28296426
222	0xbd7a7df3	-0.06115527
223	0xbce96f89	-0.028495567
224	0xbdcc1a29	-0.09965927
225	0xbdf147b2	-0.11781253
226	0x3e0d84b0	0.13820148
227	0xbdbf7b4d	-0.0934969
228	0xbd2c2a15	-0.04203232
229	0x3d93c37e	0.072150216
230	0xbd49cb41	-0.049266104
231	0xbf44fd94	-0.7694943
232	0xbe55e04b	-0.20886342
233	0x3c0823f9	0.008309358
234	0xbe194ebc	-0.14971441
235	0x3deaaf0a	0.11459167
236	0xbea4394e	-0.3207497
237	0xbe4e2f32	-0.20135191
238	0x3d8c6bef	0.06856524
239	0xbed571e3	-0.4168845
240	0xbe7ebabe	-0.24875924
241	0x3dbd600f	0.09246837
242	0xbe831169	-0.2559922
243	0xbe023a3a	-0.12717524
244	0xbd8e0ebd	-0.06936405
245	0x3da2d781	0.0795126
246	0xbd80d1bf	-0.06290006
247	0x3da8e4d1	0.08246768
248	0xbde243b9	-0.11048073
249	0x3d292cf7	0.041302647
250	0x3d92ae03	0.07162096
251	0x3d53da2c	0.051721737
252	0xbe200511	-0.15626933
253	0x3ddcdfff	0.10784911
254	0xbe17ac63	-0.14811854
255	0xbac89a6e	-0.0015304813

9.bias f4 [10]
0	0xbdfbb0d3	-0.12289586
1	0xbf915247	-1.1353234
2	0x3de2a75c	0.110670775
3	0x3e7ab007	0.24481212
4	0x3e5e555b	0.21712248
5	0xbea6d242	-0.3258229
6	0x3d8c3968	0.06846887
7	0x3f0844fb	0.53230256
8	0xbe25d616	-0.16194949
9	0xbe9909a3	-0.29890165
